…
INFO:root:configuration is Namespace(dataset_name='wikipedia', batch_size=200, model_name='TGN', gpu=0, num_neighbors=20, sample_neighbor_strategy='recent', time_scaling_factor=1e-06, num_walk_heads=8, num_heads=2, num_layers=2, walk_length=1, time_gap=2000, time_feat_dim=100, position_feat_dim=172, edge_bank_memory_mode='unlimited_memory', time_window_mode='fixed_proportion', patch_size=2, channel_embedding_dim=50, max_input_sequence_length=64, learning_rate=0.0001, dropout=0.1, num_epochs=100, optimizer='Adam', weight_decay=0.0, patience=10, val_ratio=0.15, test_ratio=0.15, num_runs=5, test_interval_epochs=10, mrr=False, negative_sample_strategy='random', load_best_configs=False, sparsify=False, device='cuda:0', seed=0, save_model_name='TGN_seed0')
INFO:root:model -> Sequential(
  (0): MemoryModel(
    (time_encoder): TimeEncoder(
      (w): Linear(in_features=1, out_features=100, bias=True)
    )
    (message_aggregator): MessageAggregator()
    (memory_bank): MemoryBank(num_nodes=9228, memory_dim=172)
    (memory_updater): GRUMemoryUpdater(
      (memory_bank): MemoryBank(num_nodes=9228, memory_dim=172)
      (memory_updater): GRUCell(616, 172)
    )
    (embedding_module): GraphAttentionEmbedding(
      (time_encoder): TimeEncoder(
        (w): Linear(in_features=1, out_features=100, bias=True)
      )
      (temporal_conv_layers): ModuleList(
        (0-1): 2 x MultiHeadAttention(
          (query_projection): Linear(in_features=272, out_features=272, bias=False)
          (key_projection): Linear(in_features=444, out_features=272, bias=False)
          (value_projection): Linear(in_features=444, out_features=272, bias=False)
          (layer_norm): LayerNorm((272,), eps=1e-05, elementwise_affine=True)
          (residual_fc): Linear(in_features=272, out_features=272, bias=True)
          (dropout): Dropout(p=0.1, inplace=False)
        )
      )
      (merge_layers): ModuleList(
        (0-1): 2 x MergeLayer(
          (fc1): Linear(in_features=444, out_features=172, bias=True)
          (fc2): Linear(in_features=172, out_features=172, bias=True)
          (act): ReLU()
        )
      )
    )
  )
  (1): MergeLayer(
    (fc1): Linear(in_features=344, out_features=172, bias=True)
    (fc2): Linear(in_features=172, out_features=1, bias=True)
    (act): ReLU()
  )
)
INFO:root:model name: TGN, #parameters: 5842340 B, 5705.41015625 KB, 5.571689605712891 MB.
The dataset has 157474 interactions, involving 9227 different nodes
The training dataset has 79202 interactions, involving 5904 different nodes
The validation dataset has 23621 interactions, involving 3256 different nodes
The test dataset has 23621 interactions, involving 3564 different nodes
…
